…
–XGBoost: The gradient-boosted decision tree classifier was configured with the following hy-
perparameters: learning rate = 0.1, maximum tree depth = 3, number of estimators = 25,
subsample = 0.8, and column sample by tree = 0.8.
–RNN-based Model: A compact recurrent architecture consisting of linear projection layer, Expo-
nential Linear Unit (ELU), Dropout, and two Bi-directional GRU layers, totaling approximately
7.5 K trainable parameters.
=====================================================================
Layer Input Shape Output Shape Param
=====================================================================
MC_Model_1D [1, 64, 108] [1, 3] --
|-Linear: 1-1 [1, 64, 108] [1, 64, 32] 3,488
|-ELU: 1-2 [1, 64, 32] [1, 64, 32] --
|-Dropout: 1-3 [1, 64, 32] [1, 64, 32] --
|-GRU: 1-4 [1, 64, 32] [1, 64, 16] 2,016
|-Dropout: 1-5 [1, 64, 16] [1, 64, 16] --
|-GRU: 1-6 [1, 64, 16] [1, 64, 8] 528
|-Dropout: 1-7 [1, 64, 8] [1, 64, 8] --
|-Linear: 1-8 [1, 512] [1, 3] 1,539
=====================================================================
--- Page 8 ---
8 Phan Le Son, Dat Tran, Duc Dam, and Lam Pham
0 1000 2000 3000 4000 5000 6000 7000
0
200
400
600
800
1000
1200
1400Count
Delta_Theta_P7
state
0
1
2
0 50 100 150 200 250 300 350
0
200
400
600
800
1000
1200Count
Alpha_P7
state
0
1
2
0 20 40 60 80 100
0
100
200
300
400
500
600
700Count
Beta_Gamma_P7
state
0
1
2
0.1 0.2 0.3 0.4 0.5 0.6 0.7 0.8 0.9
…
